…
in_channels =  64
out_channels=  128
in_channels =  128
num_blocks =  1
width_x =  1.0
stride =  1
in_channels =  128
out_channels=  256
in_channels =  256
num_blocks =  1
width_x =  1.0
stride =  1
in_channels =  64
out_channels=  32
in_channels =  32
num_blocks =  1
width_x =  1.0
stride =  1
in_channels =  32
out_channels=  64
in_channels =  64
num_blocks =  1
width_x =  1.0
stride =  1
in_channels =  64
out_channels=  128
in_channels =  128
num_blocks =  1
width_x =  1.0
stride =  1
in_channels =  128
out_channels=  256
in_channels =  256
num_blocks =  1
width_x =  1.0
stride =  1
SqueezeNext(
  (conv1): Conv2d(3, 64, kernel_size=(3, 3), stride=(1, 1), padding=(1, 1))
  (bn1): BatchNorm2d(64, eps=1e-05, momentum=0.1, affine=True, track_running_stats=True)
  (stage1_1): Sequential(
    (0): BasicBlock(
      (conv1): Conv2d(64, 16, kernel_size=(1, 1), stride=(1, 1))
      (bn1): BatchNorm2d(16, eps=1e-05, momentum=0.1, affine=True, track_running_stats=True)
      (conv2): Conv2d(16, 8, kernel_size=(1, 1), stride=(1, 1))
      (bn2): BatchNorm2d(8, eps=1e-05, momentum=0.1, affine=True, track_running_stats=True)
      (conv3): Conv2d(8, 16, kernel_size=(1, 3), stride=(1, 1), padding=(0, 1))
      (bn3): BatchNorm2d(16, eps=1e-05, momentum=0.1, affine=True, track_running_stats=True)
      (conv4): Conv2d(16, 16, kernel_size=(3, 1), stride=(1, 1), padding=(1, 0))
      (bn4): BatchNorm2d(16, eps=1e-05, momentum=0.1, affine=True, track_running_stats=True)
      (conv5): Conv2d(16, 32, kernel_size=(1, 1), stride=(1, 1))
      (bn5): BatchNorm2d(32, eps=1e-05, momentum=0.1, affine=True, track_running_stats=True)
      (shortcut): Sequential(
        (0): Conv2d(64, 32, kernel_size=(1, 1), stride=(1, 1))
        (1): BatchNorm2d(32, eps=1e-05, momentum=0.1, affine=True, track_running_stats=True)
      )
    )
  )
  (stage1_2): Sequential(
    (0): ODEBlock_PETSc(
      (odefunc): BasicBlock2(
        (conv1): Conv2d(32, 16, kernel_size=(1, 1), stride=(1, 1))
        (bn1): BatchNorm2d(16, eps=1e-05, momentum=0.1, affine=True, track_running_stats=True)
        (conv2): Conv2d(16, 8, kernel_size=(1, 1), stride=(1, 1))
        (bn2): BatchNorm2d(8, eps=1e-05, momentum=0.1, affine=True, track_running_stats=True)
        (conv3): Conv2d(8, 16, kernel_size=(1, 3), stride=(1, 1), padding=(0, 1))
        (bn3): BatchNorm2d(16, eps=1e-05, momentum=0.1, affine=True, track_running_stats=True)
        (conv4): Conv2d(16, 16, kernel_size=(3, 1), stride=(1, 1), padding=(1, 0))
        (bn4): BatchNorm2d(16, eps=1e-05, momentum=0.1, affine=True, track_running_stats=True)
        (conv5): Conv2d(16, 32, kernel_size=(1, 1), stride=(1, 1))
        (bn5): BatchNorm2d(32, eps=1e-05, momentum=0.1, affine=True, track_running_stats=True)
      )
    )
  )
  (stage2_1): Sequential(
    (0): BasicBlock(
      (conv1): Conv2d(32, 32, kernel_size=(1, 1), stride=(2, 2))
      (bn1): BatchNorm2d(32, eps=1e-05, momentum=0.1, affine=True, track_running_stats=True)
      (conv2): Conv2d(32, 16, kernel_size=(1, 1), stride=(1, 1))
      (bn2): BatchNorm2d(16, eps=1e-05, momentum=0.1, affine=True, track_running_stats=True)
      (conv3): Conv2d(16, 32, kernel_size=(1, 3), stride=(1, 1), padding=(0, 1))
      (bn3): BatchNorm2d(32, eps=1e-05, momentum=0.1, affine=True, track_running_stats=True)
      (conv4): Conv2d(32, 32, kernel_size=(3, 1), stride=(1, 1), padding=(1, 0))
      (bn4): BatchNorm2d(32, eps=1e-05, momentum=0.1, affine=True, track_running_stats=True)
      (conv5): Conv2d(32, 64, kernel_size=(1, 1), stride=(1, 1))
      (bn5): BatchNorm2d(64, eps=1e-05, momentum=0.1, affine=True, track_running_stats=True)
      (shortcut): Sequential(
        (0): Conv2d(32, 64, kernel_size=(1, 1), stride=(2, 2))
        (1): BatchNorm2d(64, eps=1e-05, momentum=0.1, affine=True, track_running_stats=True)
      )
    )
  )
  (stage2_2): Sequential(
    (0): ODEBlock_PETSc(
      (odefunc): BasicBlock2(
        (conv1): Conv2d(64, 32, kernel_size=(1, 1), stride=(1, 1))
        (bn1): BatchNorm2d(32, eps=1e-05, momentum=0.1, affine=True, track_running_stats=True)
        (conv2): Conv2d(32, 16, kernel_size=(1, 1), stride=(1, 1))
        (bn2): BatchNorm2d(16, eps=1e-05, momentum=0.1, affine=True, track_running_stats=True)
        (conv3): Conv2d(16, 32, kernel_size=(1, 3), stride=(1, 1), padding=(0, 1))
        (bn3): BatchNorm2d(32, eps=1e-05, momentum=0.1, affine=True, track_running_stats=True)
        (conv4): Conv2d(32, 32, kernel_size=(3, 1), stride=(1, 1), padding=(1, 0))
        (bn4): BatchNorm2d(32, eps=1e-05, momentum=0.1, affine=True, track_running_stats=True)
        (conv5): Conv2d(32, 64, kernel_size=(1, 1), stride=(1, 1))
        (bn5): BatchNorm2d(64, eps=1e-05, momentum=0.1, affine=True, track_running_stats=True)
      )
    )
  )
  (stage3_1): Sequential(
    (0): BasicBlock(
      (conv1): Conv2d(64, 64, kernel_size=(1, 1), stride=(2, 2))
      (bn1): BatchNorm2d(64, eps=1e-05, momentum=0.1, affine=True, track_running_stats=True)
      (conv2): Conv2d(64, 32, kernel_size=(1, 1), stride=(1, 1))
      (bn2): BatchNorm2d(32, eps=1e-05, momentum=0.1, affine=True, track_running_stats=True)
      (conv3): Conv2d(32, 64, kernel_size=(1, 3), stride=(1, 1), padding=(0, 1))
      (bn3): BatchNorm2d(64, eps=1e-05, momentum=0.1, affine=True, track_running_stats=True)
      (conv4): Conv2d(64, 64, kernel_size=(3, 1), stride=(1, 1), padding=(1, 0))
      (bn4): BatchNorm2d(64, eps=1e-05, momentum=0.1, affine=True, track_running_stats=True)
      (conv5): Conv2d(64, 128, kernel_size=(1, 1), stride=(1, 1))
      (bn5): BatchNorm2d(128, eps=1e-05, momentum=0.1, affine=True, track_running_stats=True)
      (shortcut): Sequential(
        (0): Conv2d(64, 128, kernel_size=(1, 1), stride=(2, 2))
        (1): BatchNorm2d(128, eps=1e-05, momentum=0.1, affine=True, track_running_stats=True)
      )
    )
  )
  (stage3_2): Sequential(
    (0): ODEBlock_PETSc(
      (odefunc): BasicBlock2(
        (conv1): Conv2d(128, 64, kernel_size=(1, 1), stride=(1, 1))
        (bn1): BatchNorm2d(64, eps=1e-05, momentum=0.1, affine=True, track_running_stats=True)
        (conv2): Conv2d(64, 32, kernel_size=(1, 1), stride=(1, 1))
        (bn2): BatchNorm2d(32, eps=1e-05, momentum=0.1, affine=True, track_running_stats=True)
        (conv3): Conv2d(32, 64, kernel_size=(1, 3), stride=(1, 1), padding=(0, 1))
        (bn3): BatchNorm2d(64, eps=1e-05, momentum=0.1, affine=True, track_running_stats=True)
        (conv4): Conv2d(64, 64, kernel_size=(3, 1), stride=(1, 1), padding=(1, 0))
        (bn4): BatchNorm2d(64, eps=1e-05, momentum=0.1, affine=True, track_running_stats=True)
        (conv5): Conv2d(64, 128, kernel_size=(1, 1), stride=(1, 1))
        (bn5): BatchNorm2d(128, eps=1e-05, momentum=0.1, affine=True, track_running_stats=True)
      )
    )
  )
  (stage4_1): Sequential(
    (0): BasicBlock(
      (conv1): Conv2d(128, 128, kernel_size=(1, 1), stride=(2, 2))
      (bn1): BatchNorm2d(128, eps=1e-05, momentum=0.1, affine=True, track_running_stats=True)
      (conv2): Conv2d(128, 64, kernel_size=(1, 1), stride=(1, 1))
      (bn2): BatchNorm2d(64, eps=1e-05, momentum=0.1, affine=True, track_running_stats=True)
      (conv3): Conv2d(64, 128, kernel_size=(1, 3), stride=(1, 1), padding=(0, 1))
      (bn3): BatchNorm2d(128, eps=1e-05, momentum=0.1, affine=True, track_running_stats=True)
      (conv4): Conv2d(128, 128, kernel_size=(3, 1), stride=(1, 1), padding=(1, 0))
      (bn4): BatchNorm2d(128, eps=1e-05, momentum=0.1, affine=True, track_running_stats=True)
      (conv5): Conv2d(128, 256, kernel_size=(1, 1), stride=(1, 1))
      (bn5): BatchNorm2d(256, eps=1e-05, momentum=0.1, affine=True, track_running_stats=True)
      (shortcut): Sequential(
        (0): Conv2d(128, 256, kernel_size=(1, 1), stride=(2, 2))
        (1): BatchNorm2d(256, eps=1e-05, momentum=0.1, affine=True, track_running_stats=True)
      )
    )
  )
  (stage4_2): Sequential(
    (0): ODEBlock_PETSc(
      (odefunc): BasicBlock2(
        (conv1): Conv2d(256, 128, kernel_size=(1, 1), stride=(1, 1))
        (bn1): BatchNorm2d(128, eps=1e-05, momentum=0.1, affine=True, track_running_stats=True)
        (conv2): Conv2d(128, 64, kernel_size=(1, 1), stride=(1, 1))
        (bn2): BatchNorm2d(64, eps=1e-05, momentum=0.1, affine=True, track_running_stats=True)
        (conv3): Conv2d(64, 128, kernel_size=(1, 3), stride=(1, 1), padding=(0, 1))
        (bn3): BatchNorm2d(128, eps=1e-05, momentum=0.1, affine=True, track_running_stats=True)
        (conv4): Conv2d(128, 128, kernel_size=(3, 1), stride=(1, 1), padding=(1, 0))
        (bn4): BatchNorm2d(128, eps=1e-05, momentum=0.1, affine=True, track_running_stats=True)
        (conv5): Conv2d(128, 256, kernel_size=(1, 1), stride=(1, 1))
        (bn5): BatchNorm2d(256, eps=1e-05, momentum=0.1, affine=True, track_running_stats=True)
      )
    )
  )
  (conv2): Conv2d(256, 128, kernel_size=(1, 1), stride=(1, 1))
  (bn2): BatchNorm2d(128, eps=1e-05, momentum=0.1, affine=True, track_running_stats=True)
  (linear): Linear(in_features=128, out_features=10, bias=True)
)
Training Epoch: #1, LR: 0.1000
[2020-07-28 14:05:38] Training Epoch [1/10] Iter[0/195]		Loss: 0.0091 Acc@1: 0.098[2020-07-28 14:05:42] Training Epoch [1/10] Iter[1/195]		Loss: 0.0091 Acc@1: 0.092[2020-07-28 14:05:47] Training Epoch [1/10] Iter[2/195]		Loss: 0.0090 Acc@1: 0.095[2020-07-28 14:05:51] Training Epoch [1/10] Iter[3/195]		Loss: 0.0090 Ac
…
